app/src/main/java/com/example/personal_finance_manager/Assets/limit_model.tflite (tflite, 3424 bytes, 5 tensors)

arith.constant f4 [1, 16]
0	0xbf052394	-0.5200741
1	0x3e1eb2c2	0.15497878
2	0x3e011ff8	0.12609851
3	0xbec934e8	-0.39298177
4	0xbee15899	-0.44012907
5	0x3ea89aad	0.32930508
6	0xbe012859	-0.12613048
7	0x3f3539c5	0.70791274
8	0xbeda9e0e	-0.4269871
9	0x3f0a7d6f	0.54097646
10	0xbba3a29d	-0.0049937502
11	0xbee54aec	-0.44783723
12	0x3f05917c	0.52175117
13	0x3e64e709	0.22353758
14	0xbe01fc2a	-0.12693849
15	0xbf05d79d	-0.52282125

arith.constant1 f4 [16, 16]
0	0x3e6bb1be	0.23017022
1	0xbd0a5bf2	-0.033779092
2	0x3e412b5b	0.18864195
3	0x3eaf5307	0.34243032
4	0xbe09b571	-0.1344812
5	0xbe664915	-0.22488816
6	0x3d630bb9	0.0554311
7	0xbe3420bf	-0.17590617
8	0xbdcd9b7a	-0.100394204
9	0xbde4c69d	-0.11170695
10	0x3ea44614	0.32084715
11	0x3e65e236	0.22449574
12	0xbd919444	-0.071083575
13	0x3e8c659a	0.27421266
14	0xbda1070f	-0.078626744
15	0x3dfa3b6c	0.12218365
16	0x3e9eeb15	0.31038728
17	0x3ec7de57	0.3903682
18	0x3d452100	0.048127174
19	0x3e65298e	0.22379133
20	0x3d9c6ab2	0.07637538
21	0xbdbf1b13	-0.09331336
22	0x3d31799f	0.043328878
23	0x3e56eab2	0.20987967
24	0xbe915646	-0.28386134
25	0x3e951b57	0.2912242
26	0xbdaea6a7	-0.0852788
27	0x3eed0f9f	0.4630098
28	0x3e2e695e	0.17032382
29	0x3d9156db	0.070966445
30	0x3cce0051	0.025146635
31	0x3e2593b2	0.16169623
32	0xbe7509d1	-0.23929526
33	0x3edb6772	0.4285236
34	0x3e029df1	0.12755562
35	0xbdcd7bf4	-0.10033408
36	0x3ea748f0	0.32672834
37	0xbd8f4b71	-0.06996811
38	0x3ed2f40d	0.4120182
39	0x3ec8ff1d	0.39257136
40	0x3edc15cb	0.42985377
41	0x3e761f31	0.24035336
42	0x3e21ded4	0.15807658
43	0x3e9cda96	0.30635518
44	0x3e912853	0.28351077
45	0xbd1d67c3	-0.038429033
46	0xbe5e3100	-0.2169838
47	0x3d45aa18	0.048257917
48	0xbe25bae8	-0.1618458
49	0xbebb6997	-0.36603996
50	0xbce15210	-0.02750495
51	0xbe6c0aa7	-0.23050939
52	0x3e2662ba	0.16248599
53	0x3d302c88	0.04301122
54	0xbeb9d3fe	-0.3629455
55	0x3e269dea	0.16271177
56	0xbdea3630	-0.11436117
57	0x3ea3f565	0.3202316
58	0xbe502e64	-0.20330197
59	0xbed057e8	-0.40692067
60	0x3e9d644b	0.3074058
61	0x3e5214b6	0.20515713
62	0xbe0e8638	-0.13918388
63	0x3ea287e5	0.31744304
64	0xbd9583b8	-0.07300514
65	0x3e81a333	0.25319824
66	0xbed45635	-0.4147202
67	0x3e838615	0.25688234
68	0xbe1c82da	-0.15284291
69	0xbe079d10	-0.13243508
70	0x3ebe0d6d	0.37119618
71	0xbe41d79b	-0.18929903
72	0xbe4333c7	-0.1906272
73	0xbecb8095	-0.39746538
74	0xbd6c3e38	-0.057676524
75	0xbd9a5d80	-0.07537365
76	0x3ebb7e09	0.36619595
77	0xbe861798	-0.26189876
78	0xbe016248	-0.12635148
79	0x3d8daad4	0.069173485
80	0xbe9a35d2	-0.30119187
81	0xbd726458	-0.059177727
82	0x3c4c61ec	0.012474518
83	0x3e065942	0.13119987
84	0x3ec9912c	0.3936857
85	0x3ef76790	0.483212
86	0x3db4f22e	0.088352546
87	0x3e07b235	0.13251574
88	0xbe7c5d35	-0.2464493
89	0x3e551cca	0.20811763
90	0xbe14c884	-0.14529616
91	0x3e1f7fae	0.1557605
92	0xbe890778	-0.2676351
93	0xbdfad5e6	-0.12247829
94	0x3e5b9dec	0.21446961
95	0xbd74f4c8	-0.059803754
96	0xbe0efefa	-0.13964453
97	0xbd3b5c9d	-0.04574262
98	0xbe00e001	-0.1258545
99	0xbd6e2578	-0.0581412
100	0xbde8095a	-0.11329909
101	0x3ed5b900	0.41742706
102	0x3e8166fe	0.2527389
103	0xbd9fdace	-0.078054056
104	0x3c9d5693	0.01920632
105	0xbecdd659	-0.40202597
106	0xbdc4a1f6	-0.09601204
107	0xbed3d676	-0.41374558
108	0xbe8cc66a	-0.27495128
109	0xbecacd21	-0.39609626
110	0x3ebbb244	0.36659443
111	0x3cbfa760	0.02339524
112	0xbe54f129	-0.2079512
113	0xbe56afdd	-0.20965524
114	0x3ea7cc83	0.32773218
115	0xbdd447a4	-0.10365227
116	0xbbb0a6df	-0.0053909863
117	0xbe41e038	-0.18933189
118	0x3ebbb66d	0.36662617
119	0xbf004697	-0.5010771
120	0x3c4f03a9	0.01263515
121	0x3ee766c3	0.45195588
122	0x3df69c6f	0.12041556
123	0xbea3a4e8	-0.3196175
124	0x3e67226e	0.22571728
125	0x3d71c93c	0.059029803
126	0x3d39446c	0.045231268
127	0x3dbaf97c	0.091296166
128	0xbe8c8c72	-0.274509
129	0x3e10abca	0.14128032
130	0x3d519fe8	0.05117789
131	0x3e7ca682	0.24672893
132	0x3d5d9760	0.05409944
133	0xbd6e5138	-0.058182925
134	0xbed86797	-0.42266533
135	0xbecaeeac	-0.39635217
136	0x3dbcbc94	0.09215656
137	0x3e21f9ce	0.15817949
138	0xbe9e547a	-0.30923826
139	0xbeb88713	-0.36040553
140	0xbed8dbf6	-0.42355317
141	0xbe6f43ad	-0.2336566
142	0x3c03f660	0.008054346
143	0xbe706aa3	-0.23478179
144	0x3ed75c3f	0.42062566
145	0xbe985ff2	-0.297607
146	0x3ea1f4d5	0.31632105
147	0x3eb92719	0.36162642
148	0x3e8ab8f2	0.27094227
149	0xbd0e5006	-0.034744285
150	0x3e45dd5b	0.19322722
151	0xbedaa21a	-0.427018
152	0xbd678110	-0.056519568
153	0xbe7c0fb9	-0.24615373
154	0xbe84ba03	-0.25923166
155	0x3ca745c6	0.020419013
156	0xbec7321e	-0.38905424
157	0xbdab2871	-0.08357323
158	0x3e999f3f	0.30004308
159	0xbe4890d5	-0.19586499
160	0x3ec4ae67	0.38414308
161	0xbec1072f	-0.37700793
162	0x3ea14b60	0.3150282
163	0xbecd4fe4	-0.40100014
164	0xbe8a20a7	-0.26978037
165	0x3e8e8e57	0.27842972
166	0xbe5b5cf1	-0.21422173
167	0xbeee9663	-0.4659911
168	0x3e5fd96c	0.21860284
169	0x3e9b6da8	0.303571
170	0xbe8af2e0	-0.27138424
171	0x3ebd7d33	0.37009582
172	0xbed2dd50	-0.41184473
173	0xbdf2491d	-0.118303515
174	0x3e3caf99	0.1842636
175	0x3d4c7a98	0.049921602
176	0x3d400090	0.046875536
177	0xbec8a084	-0.39184964
178	0xbe52103a	-0.20514002
179	0xbe49a479	-0.19691648
180	0x3edbea89	0.42952374
181	0x3c845450	0.016153485
182	0xbc849d10	-0.016188174
183	0x3e3d4a56	0.18485388
184	0x3ec92617	0.39286873
185	0x3e13639e	0.1439347
186	0xbe10d378	-0.14143169
187	0x3ca58c10	0.020208389
188	0xbe86fddd	-0.26365557
189	0xbea3183c	-0.31854427
190	0xbe924234	-0.28566134
191	0xbe8aad54	-0.27085364
192	0x3d6c1dc0	0.05764556
193	0x3dee1e14	0.11626831
194	0x3eb59b2d	0.35469952
195	0x3eafb4ff	0.34317777
196	0x3c1c2dc0	0.009532392
197	0xbe8f2ef5	-0.27965513
198	0xbed04a89	-0.40681866
199	0xbe751c01	-0.23936464
200	0x3e81a2f3	0.25319633
201	0xbeca985e	-0.39569372
202	0x3e9981a5	0.29981723
203	0xbec16987	-0.37775823
204	0xbeba293a	-0.36359578
205	0xbe916453	-0.28396854
206	0x3e04c602	0.12966159
207	0x3ec7a1ad	0.38990536
208	0xbeadc9b0	-0.33942938
209	0xbe837be7	-0.25680467
210	0xbd9768ee	-0.073930606
211	0xbe454f0a	-0.19268432
212	0xbe703fac	-0.23461789
213	0x3dda3aed	0.106557705
214	0x3eeedad9	0.46651343
215	0xbd219f8d	-0.0394588
216	0x3ec9df02	0.39427954
217	0x3e905bf8	0.28195167
218	0xbdd1bde5	-0.10241298
219	0x3ec611a7	0.38685343
220	0x3ea249d3	0.31696948
221	0xbc69688d	-0.014246118
222	0x3ed2de64	0.41185296
223	0x3e8a3019	0.2698982
224	0x3e6a4e0e	0.22881338
225	0x3ed67b2f	0.41890857
226	0x3e557242	0.20844367
227	0xbe7c553d	-0.24641891
228	0x3d7974d0	0.060902417
229	0x3e4e33b6	0.20136914
230	0xbe4b15d5	-0.19832547
231	0x3e822a9d	0.25423136
232	0x3c8ede70	0.01744005
233	0x3e3a6a3a	0.18204585
234	0x3dc5644c	0.09638271
235	0xbe915450	-0.28384638
236	0x3e7c03aa	0.24610773
237	0xbe44942b	-0.19197147
238	0xbe8335e8	-0.25627065
239	0x3ed78e5b	0.42100796
240	0x3d1b9fe0	0.037994266
241	0xbe763c23	-0.24046378
242	0xbef2633f	-0.47341344
243	0x3ed60259	0.41798666
244	0xbe0c6bd2	-0.13713005
245	0x3eb2f4cc	0.3495239
246	0xbe3ff01f	-0.18743943
247	0x3ebc0138	0.3671968
248	0x3e9f6f41	0.31139567
249	0x3e840ba9	0.25790146
250	0x3e66d027	0.22540341
251	0x3e8cce80	0.27501297
252	0xbe948886	-0.2901041
253	0xbce05f3e	-0.027389165
254	0xbce1c205	-0.027558336
255	0x3eb32dff	0.3499603

sequential_1/dense_1_2/BiasAdd/ReadVariableOp f4 [16]
0	0xbd81ea15	-0.06343476
1	0x3d9e6d4b	0.0773569
2	0x3d9c9a42	0.0764661
3	0x00000000	0.0
4	0x00000000	0.0
5	0x3d8cf4a9	0.06882603
6	0xbc2a0839	-0.010377937
7	0xbc401177	-0.011722914
8	0x00000000	0.0
9	0x3be48d09	0.0069748205
10	0xbd498cdc	-0.0492066
11	0x00000000	0.0
12	0x00000000	0.0
13	0x3d8e63d9	0.06952638
14	0x00000000	0.0
15	0xbd82020a	-0.06348045

sequential_1/dense_1/BiasAdd/ReadVariableOp f4 [16]
0	0x00000000	0.0
1	0x3dacc438	0.08435863
2	0x3db98061	0.090576895
3	0x00000000	0.0
4	0x3db9fa7c	0.09080979
5	0xbca204fd	-0.01977777
6	0x3d9fa7ea	0.07795699
7	0xbd1b6ef3	-0.037947606
8	0xbd66bde6	-0.056333445
9	0xbc0ad5ec	-0.0084738545
10	0xbd7cee14	-0.061750486
11	0xbd48759c	-0.048940286
12	0x00000000	0.0
13	0xbd730312	-0.0593291
14	0x3dabd568	0.083903134
15	0x00000000	0.0

sequential_1/dense_1/MatMul f4 [16, 5]
0	0x3e1a2ee0	0.15056944
1	0x3ed7250c	0.42020452
2	0xbd4f09e8	-0.050546557
3	0x3b222d00	0.002474606
4	0xbefed8d3	-0.497748
5	0xbebde757	-0.3709056
6	0x3e87b7cd	0.26507416
7	0x3e4b86c0	0.19875622
8	0x3e1398a1	0.14413692
9	0xbddec46f	-0.108773105
10	0xbe12ef81	-0.14349176
11	0xbe860fab	-0.2618383
12	0x3de9d49f	0.114175074
13	0x3eec4e4f	0.46153495
14	0x3e59fd19	0.21287955
15	0x3eded0d4	0.43518698
16	0x3e8c3f46	0.27392024
17	0xbc85dfc0	-0.016342044
18	0x3da0bb10	0.07848179
19	0xbeb01b48	-0.34395814
20	0x3eff37f5	0.4984738
21	0xbd95369d	-0.07285807
22	0xbb868e17	-0.004106294
23	0x3eb74e4d	0.35801926
24	0x3e4d9491	0.20076205
25	0x3dd3c8f9	0.10341067
26	0xbc4633fa	-0.012097353
27	0x3e010f1e	0.12603423
28	0x3ef966fc	0.48711383
29	0x3d981948	0.07426697
30	0xbe8ae63d	-0.27128783
31	0xbebfa0f2	-0.3742748
32	0x3eb9763e	0.36223024
33	0xbea03d55	-0.31296793
34	0x3e4f972c	0.20272511
35	0x3e8e92d3	0.27846393
36	0x3d071d53	0.03298695
37	0x3eb78881	0.35846332
38	0xbed5211c	-0.41626823
39	0xbe98e043	-0.29858598
40	0xbf172467	-0.5903992
41	0x3e9b1d38	0.3029573
42	0x3d772773	0.060340356
43	0x3e4ad3e5	0.19807394
44	0x3e61a1cb	0.22034375
45	0xbe2df3cb	-0.16987531
46	0x3e093703	0.13399892
47	0x3e15b984	0.1462155
48	0xbe91bfdd	-0.28466693
49	0x3ee04f3c	0.4381045
50	0x3e85d642	0.26140028
51	0x3e8cfc36	0.27536172
52	0x3e62ef0f	0.22161506
53	0x3e8c6bdc	0.2742604
54	0x3ea5c7c7	0.3237898
55	0x3ede0370	0.43361998
56	0x3e4b0e46	0.19829664
57	0x3eb4d8bc	0.35321605
58	0x3e860f81	0.26183704
59	0x3d48815b	0.048951488
60	0xbe39d4ce	-0.18147585
61	0xbdf19d88	-0.11797625
62	0xbebf4f1f	-0.37365052
63	0x3eab6d6e	0.33481926
64	0xbe616bf2	-0.22013834
65	0xbf141c98	-0.5785613
66	0xbd97a8e6	-0.07405262
67	0x3ea8385d	0.32855502
68	0x3c934d93	0.017981326
69	0xbe2c1caf	-0.16807817
70	0xbe0f8b69	-0.14018025
71	0x3ed205b5	0.4101998
72	0x3f13c266	0.57718503
73	0x3e1c2821	0.15249683
74	0x3d5196ae	0.05116909
75	0x3dbcc260	0.092167616
76	0x3e8696b0	0.2628684
77	0xbe89caf1	-0.26912645
78	0x3f01774d	0.50572664
79	0xbefd6fdf	-0.49499413
